…
I20240909 16:44:45 4158844 dinov2 ssl_meta_arch.py:111] OPTIONS -- IBOT -- head shared with DINO
I20240909 16:44:45 4158844 dinov2 ssl_meta_arch.py:121] Student and Teacher are built: they are both vit_large network.
I20240909 16:44:46 4158844 dinov2 ssl_meta_arch.py:391] DISTRIBUTED FSDP -- preparing model for distributed training
W20240909 16:44:46 4158844 py.warnings warnings.py:109] /data/home/umang/miniconda3/envs/dinov2/lib/python3.9/site-packages/torch/distributed/fsdp/wrap.py:99: UserWarning: FSDP will not all-gather parameters for containers that do not implement forward: BlockChunk(
  (0-5): 6 x NestedTensorBlock(
    (norm1): LayerNorm((1024,), eps=1e-06, elementwise_affine=True)
    (attn): MemEffAttention(
      (qkv): Linear(in_features=1024, out_features=3072, bias=True)
      (attn_drop): Dropout(p=0.0, inplace=False)
      (proj): Linear(in_features=1024, out_features=1024, bias=True)
      (proj_drop): Dropout(p=0.0, inplace=False)
    )
    (ls1): LayerScale()
    (drop_path1): DropPath()
    (norm2): LayerNorm((1024,), eps=1e-06, elementwise_affine=True)
    (mlp): Mlp(
      (fc1): Linear(in_features=1024, out_features=4096, bias=True)
      (act): GELU(approximate='none')
      (fc2): Linear(in_features=4096, out_features=1024, bias=True)
      (drop): Dropout(p=0.0, inplace=False)
    )
    (ls2): LayerScale()
    (drop_path2): DropPath()
  )
)
  return fsdp_fn(module, **kwargs)

W20240909 16:44:46 4158844 py.warnings warnings.py:109] /data/home/umang/miniconda3/envs/dinov2/lib/python3.9/site-packages/torch/distributed/fsdp/_init_utils.py:440: UserWarning: FSDP is switching to use `NO_SHARD` instead of ShardingStrategy.SHARD_GRAD_OP since the world size is 1.
  warnings.warn(

W20240909 16:44:46 4158844 py.warnings warnings.py:109] /data/home/umang/miniconda3/envs/dinov2/lib/python3.9/site-packages/torch/distributed/fsdp/wrap.py:99: UserWarning: FSDP will not all-gather parameters for containers that do not implement forward: BlockChunk(
  (0-5): 6 x Identity()
  (6-11): 6 x NestedTensorBlock(
    (norm1): LayerNorm((1024,), eps=1e-06, elementwise_affine=True)
    (attn): MemEffAttention(
      (qkv): Linear(in_features=1024, out_features=3072, bias=True)
      (attn_drop): Dropout(p=0.0, inplace=False)
      (proj): Linear(in_features=1024, out_features=1024, bias=True)
      (proj_drop): Dropout(p=0.0, inplace=False)
    )
    (ls1): LayerScale()
    (drop_path1): DropPath()
    (norm2): LayerNorm((1024,), eps=1e-06, elementwise_affine=True)
    (mlp): Mlp(
      (fc1): Linear(in_features=1024, out_features=4096, bias=True)
      (act): GELU(approximate='none')
      (fc2): Linear(in_features=4096, out_features=1024, bias=True)
      (drop): Dropout(p=0.0, inplace=False)
    )
    (ls2): LayerScale()
    (drop_path2): DropPath()
  )
)
  return fsdp_fn(module, **kwargs)

W20240909 16:44:46 4158844 py.warnings warnings.py:109] /data/home/umang/miniconda3/envs/dinov2/lib/python3.9/site-packages/torch/distributed/fsdp/wrap.py:99: UserWarning: FSDP will not all-gather parameters for containers that do not implement forward: BlockChunk(
  (0-11): 12 x Identity()
  (12-17): 6 x NestedTensorBlock(
    (norm1): LayerNorm((1024,), eps=1e-06, elementwise_affine=True)
    (attn): MemEffAttention(
      (qkv): Linear(in_features=1024, out_features=3072, bias=True)
      (attn_drop): Dropout(p=0.0, inplace=False)
      (proj): Linear(in_features=1024, out_features=1024, bias=True)
      (proj_drop): Dropout(p=0.0, inplace=False)
    )
    (ls1): LayerScale()
    (drop_path1): DropPath()
    (norm2): LayerNorm((1024,), eps=1e-06, elementwise_affine=True)
    (mlp): Mlp(
      (fc1): Linear(in_features=1024, out_features=4096, bias=True)
      (act): GELU(approximate='none')
      (fc2): Linear(in_features=4096, out_features=1024, bias=True)
      (drop): Dropout(p=0.0, inplace=False)
    )
    (ls2): LayerScale()
    (drop_path2): DropPath()
  )
)
  return fsdp_fn(module, **kwargs)

W20240909 16:44:46 4158844 py.warnings warnings.py:109] /data/home/umang/miniconda3/envs/dinov2/lib/python3.9/site-packages/torch/distributed/fsdp/wrap.py:99: UserWarning: FSDP will not all-gather parameters for containers that do not implement forward: BlockChunk(
  (0-17): 18 x Identity()
  (18-23): 6 x NestedTensorBlock(
    (norm1): LayerNorm((1024,), eps=1e-06, elementwise_affine=True)
    (attn): MemEffAttention(
      (qkv): Linear(in_features=1024, out_features=3072, bias=True)
      (attn_drop): Dropout(p=0.0, inplace=False)
      (proj): Linear(in_features=1024, out_features=1024, bias=True)
      (proj_drop): Dropout(p=0.0, inplace=False)
    )
    (ls1): LayerScale()
    (drop_path1): DropPath()
    (norm2): LayerNorm((1024,), eps=1e-06, elementwise_affine=True)
    (mlp): Mlp(
      (fc1): Linear(in_features=1024, out_features=4096, bias=True)
      (act): GELU(approximate='none')
      (fc2): Linear(in_features=4096, out_features=1024, bias=True)
      (drop): Dropout(p=0.0, inplace=False)
    )
    (ls2): LayerScale()
    (drop_path2): DropPath()
  )
)
  return fsdp_fn(module, **kwargs)

W20240909 16:44:46 4158844 py.warnings warnings.py:109] /data/home/umang/miniconda3/envs/dinov2/lib/python3.9/site-packages/torch/distributed/fsdp/wrap.py:99: UserWarning: FSDP will not all-gather parameters for containers that do not implement forward: BlockChunk(
  (0-5): 6 x NestedTensorBlock(
    (norm1): LayerNorm((1024,), eps=1e-06, elementwise_affine=True)
    (attn): MemEffAttention(
      (qkv): Linear(in_features=1024, out_features=3072, bias=True)
      (attn_drop): Dropout(p=0.0, inplace=False)
      (proj): Linear(in_features=1024, out_features=1024, bias=True)
      (proj_drop): Dropout(p=0.0, inplace=False)
    )
    (ls1): LayerScale()
    (drop_path1): Identity()
    (norm2): LayerNorm((1024,), eps=1e-06, elementwise_affine=True)
    (mlp): Mlp(
      (fc1): Linear(in_features=1024, out_features=4096, bias=True)
      (act): GELU(approximate='none')
      (fc2): Linear(in_features=4096, out_features=1024, bias=True)
      (drop): Dropout(p=0.0, inplace=False)
    )
    (ls2): LayerScale()
    (drop_path2): Identity()
  )
)
  return fsdp_fn(module, **kwargs)

W20240909 16:44:46 4158844 py.warnings warnings.py:109] /data/home/umang/miniconda3/envs/dinov2/lib/python3.9/site-packages/torch/distributed/fsdp/wrap.py:99: UserWarning: FSDP will not all-gather parameters for containers that do not implement forward: BlockChunk(
  (0-5): 6 x Identity()
  (6-11): 6 x NestedTensorBlock(
    (norm1): LayerNorm((1024,), eps=1e-06, elementwise_affine=True)
    (attn): MemEffAttention(
      (qkv): Linear(in_features=1024, out_features=3072, bias=True)
      (attn_drop): Dropout(p=0.0, inplace=False)
      (proj): Linear(in_features=1024, out_features=1024, bias=True)
      (proj_drop): Dropout(p=0.0, inplace=False)
    )
    (ls1): LayerScale()
    (drop_path1): Identity()
    (norm2): LayerNorm((1024,), eps=1e-06, elementwise_affine=True)
    (mlp): Mlp(
      (fc1): Linear(in_features=1024, out_features=4096, bias=True)
      (act): GELU(approximate='none')
      (fc2): Linear(in_features=4096, out_features=1024, bias=True)
      (drop): Dropout(p=0.0, inplace=False)
    )
    (ls2): LayerScale()
    (drop_path2): Identity()
  )
)
  return fsdp_fn(module, **kwargs)

W20240909 16:44:46 4158844 py.warnings warnings.py:109] /data/home/umang/miniconda3/envs/dinov2/lib/python3.9/site-packages/torch/distributed/fsdp/wrap.py:99: UserWarning: FSDP will not all-gather parameters for containers that do not implement forward: BlockChunk(
  (0-11): 12 x Identity()
  (12-17): 6 x NestedTensorBlock(
    (norm1): LayerNorm((1024,), eps=1e-06, elementwise_affine=True)
    (attn): MemEffAttention(
      (qkv): Linear(in_features=1024, out_features=3072, bias=True)
      (attn_drop): Dropout(p=0.0, inplace=False)
      (proj): Linear(in_features=1024, out_features=1024, bias=True)
      (proj_drop): Dropout(p=0.0, inplace=False)
    )
    (ls1): LayerScale()
    (drop_path1): Identity()
    (norm2): LayerNorm((1024,), eps=1e-06, elementwise_affine=True)
    (mlp): Mlp(
      (fc1): Linear(in_features=1024, out_features=4096, bias=True)
      (act): GELU(approximate='none')
      (fc2): Linear(in_features=4096, out_features=1024, bias=True)
      (drop): Dropout(p=0.0, inplace=False)
    )
    (ls2): LayerScale()
    (drop_path2): Identity()
  )
)
  return fsdp_fn(module, **kwargs)

W20240909 16:44:46 4158844 py.warnings warnings.py:109] /data/home/umang/miniconda3/envs/dinov2/lib/python3.9/site-packages/torch/distributed/fsdp/wrap.py:99: UserWarning: FSDP will not all-gather parameters for containers that do not implement forward: BlockChunk(
  (0-17): 18 x Identity()
  (18-23): 6 x NestedTensorBlock(
    (norm1): LayerNorm((1024,), eps=1e-06, elementwise_affine=True)
    (attn): MemEffAttention(
      (qkv): Linear(in_features=1024, out_features=3072, bias=True)
      (attn_drop): Dropout(p=0.0, inplace=False)
      (proj): Linear(in_features=1024, out_features=1024, bias=True)
      (proj_drop): Dropout(p=0.0, inplace=False)
    )
    (ls1): LayerScale()
    (drop_path1): Identity()
    (norm2): LayerNorm((1024,), eps=1e-06, elementwise_affine=True)
    (mlp): Mlp(
      (fc1): Linear(in_features=1024, out_features=4096, bias=True)
      (act): GELU(approximate='none')
      (fc2): Linear(in_features=4096, out_features=1024, bias=True)
      (drop): Dropout(p=0.0, inplace=False)
    )
    (ls2): LayerScale()
    (drop_path2): Identity()
  )
)
  return fsdp_fn(module, **kwargs)

I20240909 16:44:46 4158844 dinov2 train.py:304] Model:
SSLMetaArch(
  (dino_loss): DINOLoss()
  (koleo_loss): KoLeoLoss(
    (pdist): PairwiseDistance()
  )
  (ibot_patch_loss): iBOTPatchLoss()
  (student): ModuleDict(
    (backbone): FullyShardedDataParallel(
      (_fsdp_wrapped_module): DinoVisionTransformer(
        (patch_embed): PatchEmbed(
          (proj): Conv2d(3, 1024, kernel_size=(16, 16), stride=(16, 16))
          (norm): Identity()
        )
        (blocks): ModuleList(
          (0): FullyShardedDataParallel(
            (_fsdp_wrapped_module): BlockChunk(
              (0-5): 6 x NestedTensorBlock(
                (norm1): LayerNorm((1024,), eps=1e-06, elementwise_affine=True)
                (attn): MemEffAttention(
                  (qkv): Linear(in_features=1024, out_features=3072, bias=True)
                  (attn_drop): Dropout(p=0.0, inplace=False)
                  (proj): Linear(in_features=1024, out_features=1024, bias=True)
                  (proj_drop): Dropout(p=0.0, inplace=False)
                )
                (ls1): LayerScale()
                (drop_path1): DropPath()
                (norm2): LayerNorm((1024,), eps=1e-06, elementwise_affine=True)
                (mlp): Mlp(
                  (fc1): Linear(in_features=1024, out_features=4096, bias=True)
                  (act): GELU(approximate='none')
                  (fc2): Linear(in_features=4096, out_features=1024, bias=True)
                  (drop): Dropout(p=0.0, inplace=False)
                )
                (ls2): LayerScale()
                (drop_path2): DropPath()
              )
            )
          )
          (1): FullyShardedDataParallel(
            (_fsdp_wrapped_module): BlockChunk(
              (0-5): 6 x Identity()
              (6-11): 6 x NestedTensorBlock(
                (norm1): LayerNorm((1024,), eps=1e-06, elementwise_affine=True)
                (attn): MemEffAttention(
                  (qkv): Linear(in_features=1024, out_features=3072, bias=True)
                  (attn_drop): Dropout(p=0.0, inplace=False)
                  (proj): Linear(in_features=1024, out_features=1024, bias=True)
                  (proj_drop): Dropout(p=0.0, inplace=False)
                )
                (ls1): LayerScale()
                (drop_path1): DropPath()
                (norm2): LayerNorm((1024,), eps=1e-06, elementwise_affine=True)
                (mlp): Mlp(
                  (fc1): Linear(in_features=1024, out_features=4096, bias=True)
                  (act): GELU(approximate='none')
                  (fc2): Linear(in_features=4096, out_features=1024, bias=True)
                  (drop): Dropout(p=0.0, inplace=False)
                )
                (ls2): LayerScale()
                (drop_path2): DropPath()
              )
            )
          )
          (2): FullyShardedDataParallel(
            (_fsdp_wrapped_module): BlockChunk(
              (0-11): 12 x Identity()
              (12-17): 6 x NestedTensorBlock(
                (norm1): LayerNorm((1024,), eps=1e-06, elementwise_affine=True)
                (attn): MemEffAttention(
                  (qkv): Linear(in_features=1024, out_features=3072, bias=True)
                  (attn_drop): Dropout(p=0.0, inplace=False)
                  (proj): Linear(in_features=1024, out_features=1024, bias=True)
                  (proj_drop): Dropout(p=0.0, inplace=False)
                )
                (ls1): LayerScale()
                (drop_path1): DropPath()
                (norm2): LayerNorm((1024,), eps=1e-06, elementwise_affine=True)
                (mlp): Mlp(
                  (fc1): Linear(in_features=1024, out_features=4096, bias=True)
                  (act): GELU(approximate='none')
                  (fc2): Linear(in_features=4096, out_features=1024, bias=True)
                  (drop): Dropout(p=0.0, inplace=False)
                )
                (ls2): LayerScale()
                (drop_path2): DropPath()
              )
            )
          )
          (3): FullyShardedDataParallel(
            (_fsdp_wrapped_module): BlockChunk(
              (0-17): 18 x Identity()
              (18-23): 6 x NestedTensorBlock(
                (norm1): LayerNorm((1024,), eps=1e-06, elementwise_affine=True)
                (attn): MemEffAttention(
                  (qkv): Linear(in_features=1024, out_features=3072, bias=True)
                  (attn_drop): Dropout(p=0.0, inplace=False)
                  (proj): Linear(in_features=1024, out_features=1024, bias=True)
                  (proj_drop): Dropout(p=0.0, inplace=False)
                )
                (ls1): LayerScale()
                (drop_path1): DropPath()
                (norm2): LayerNorm((1024,), eps=1e-06, elementwise_affine=True)
                (mlp): Mlp(
                  (fc1): Linear(in_features=1024, out_features=4096, bias=True)
                  (act): GELU(approximate='none')
                  (fc2): Linear(in_features=4096, out_features=1024, bias=True)
                  (drop): Dropout(p=0.0, inplace=False)
                )
                (ls2): LayerScale()
                (drop_path2): DropPath()
              )
            )
          )
        )
        (norm): LayerNorm((1024,), eps=1e-06, elementwise_affine=True)
        (head): Identity()
      )
    )
    (dino_head): FullyShardedDataParallel(
      (_fsdp_wrapped_module): DINOHead(
        (mlp): Sequential(
          (0): Linear(in_features=1024, out_features=2048, bias=True)
          (1): GELU(approximate='none')
          (2): Linear(in_features=2048, out_features=2048, bias=True)
          (3): GELU(approximate='none')
          (4): Linear(in_features=2048, out_features=256, bias=True)
        )
        (last_layer): Linear(in_features=256, out_features=65536, bias=False)
      )
    )
  )
  (teacher): ModuleDict(
    (backbone): FullyShardedDataParallel(
      (_fsdp_wrapped_module): DinoVisionTransformer(
        (patch_embed): PatchEmbed(
          (proj): Conv2d(3, 1024, kernel_size=(16, 16), stride=(16, 16))
          (norm): Identity()
        )
        (blocks): ModuleList(
          (0): FullyShardedDataParallel(
            (_fsdp_wrapped_module): BlockChunk(
              (0-5): 6 x NestedTensorBlock(
                (norm1): LayerNorm((1024,), eps=1e-06, elementwise_affine=True)
                (attn): MemEffAttention(
                  (qkv): Linear(in_features=1024, out_features=3072, bias=True)
                  (attn_drop): Dropout(p=0.0, inplace=False)
                  (proj): Linear(in_features=1024, out_features=1024, bias=True)
                  (proj_drop): Dropout(p=0.0, inplace=False)
                )
                (ls1): LayerScale()
                (drop_path1): Identity()
                (norm2): LayerNorm((1024,), eps=1e-06, elementwise_affine=True)
                (mlp): Mlp(
                  (fc1): Linear(in_features=1024, out_features=4096, bias=True)
                  (act): GELU(approximate='none')
                  (fc2): Linear(in_features=4096, out_features=1024, bias=True)
                  (drop): Dropout(p=0.0, inplace=False)
                )
                (ls2): LayerScale()
                (drop_path2): Identity()
              )
            )
          )
          (1): FullyShardedDataParallel(
            (_fsdp_wrapped_module): BlockChunk(
              (0-5): 6 x Identity()
              (6-11): 6 x NestedTensorBlock(
                (norm1): LayerNorm((1024,), eps=1e-06, elementwise_affine=True)
                (attn): MemEffAttention(
                  (qkv): Linear(in_features=1024, out_features=3072, bias=True)
                  (attn_drop): Dropout(p=0.0, inplace=False)
                  (proj): Linear(in_features=1024, out_features=1024, bias=True)
                  (proj_drop): Dropout(p=0.0, inplace=False)
                )
                (ls1): LayerScale()
                (drop_path1): Identity()
                (norm2): LayerNorm((1024,), eps=1e-06, elementwise_affine=True)
                (mlp): Mlp(
                  (fc1): Linear(in_features=1024, out_features=4096, bias=True)
                  (act): GELU(approximate='none')
                  (fc2): Linear(in_features=4096, out_features=1024, bias=True)
                  (drop): Dropout(p=0.0, inplace=False)
                )
                (ls2): LayerScale()
                (drop_path2): Identity()
              )
            )
          )
          (2): FullyShardedDataParallel(
            (_fsdp_wrapped_module): BlockChunk(
              (0-11): 12 x Identity()
              (12-17): 6 x NestedTensorBlock(
                (norm1): LayerNorm((1024,), eps=1e-06, elementwise_affine=True)
                (attn): MemEffAttention(
                  (qkv): Linear(in_features=1024, out_features=3072, bias=True)
                  (attn_drop): Dropout(p=0.0, inplace=False)
                  (proj): Linear(in_features=1024, out_features=1024, bias=True)
                  (proj_drop): Dropout(p=0.0, inplace=False)
                )
                (ls1): LayerScale()
                (drop_path1): Identity()
                (norm2): LayerNorm((1024,), eps=1e-06, elementwise_affine=True)
                (mlp): Mlp(
                  (fc1): Linear(in_features=1024, out_features=4096, bias=True)
                  (act): GELU(approximate='none')
                  (fc2): Linear(in_features=4096, out_features=1024, bias=True)
                  (drop): Dropout(p=0.0, inplace=False)
                )
                (ls2): LayerScale()
                (drop_path2): Identity()
              )
            )
          )
          (3): FullyShardedDataParallel(
            (_fsdp_wrapped_module): BlockChunk(
              (0-17): 18 x Identity()
              (18-23): 6 x NestedTensorBlock(
                (norm1): LayerNorm((1024,), eps=1e-06, elementwise_affine=True)
                (attn): MemEffAttention(
                  (qkv): Linear(in_features=1024, out_features=3072, bias=True)
                  (attn_drop): Dropout(p=0.0, inplace=False)
                  (proj): Linear(in_features=1024, out_features=1024, bias=True)
                  (proj_drop): Dropout(p=0.0, inplace=False)
                )
                (ls1): LayerScale()
                (drop_path1): Identity()
                (norm2): LayerNorm((1024,), eps=1e-06, elementwise_affine=True)
                (mlp): Mlp(
                  (fc1): Linear(in_features=1024, out_features=4096, bias=True)
                  (act): GELU(approximate='none')
                  (fc2): Linear(in_features=4096, out_features=1024, bias=True)
                  (drop): Dropout(p=0.0, inplace=False)
                )
                (ls2): LayerScale()
                (drop_path2): Identity()
              )
            )
          )
        )
        (norm): LayerNorm((1024,), eps=1e-06, elementwise_affine=True)
        (head): Identity()
      )
    )
    (dino_head): FullyShardedDataParallel(
      (_fsdp_wrapped_module): DINOHead(
        (mlp): Sequential(
          (0): Linear(in_features=1024, out_features=2048, bias=True)
          (1): GELU(approximate='none')
          (2): Linear(in_features=2048, out_features=2048, bias=True)
          (3): GELU(approximate='none')
          (4): Linear(in_features=2048, out_features=256, bias=True)
        )
        (last_layer): Linear(in_features=256, out_features=65536, bias=False)
      )
    )
  )
)
I20240909 16:44:46 4158844 dinov2 param_groups.py:54] chunked fsdp
I20240909 16:44:46 4158844 dinov2 param_groups.py:87] cls_token: lr_multiplier: 0.0717897987691853, wd_multiplier: 1.0
I20240909 16:44:46 4158844 dinov2 param_groups.py:87] pos_embed: lr_multiplier: 0.0717897987691853, wd_multiplier: 1.0
I20240909 16:44:46 4158844 dinov2 param_groups.py:87] mask_token: lr_multiplier: 0.0717897987691853, wd_multiplier: 1.0
…
